…
tent":"Vamos a graficar nuestro modelo donde podemos observar de forma mas simple nuestras dos salidas y1 y y2, tambien podemos ver que y2tiene una capa extra, esta es la detf.keras.layers.Dense(units=1, name='y2', activation='linear')(X) model = build_model() model.summary()  Model: &quot;model&quot; __________________________________________________________________________________________________ Layer (type) Output Shape Param # Connected to ================================================================================================== input_1 (InputLayer) [(None, 8)] 0 [] dense (Dense) (None, 128) 1152 ['input_1[0][0]'] dense_1 (Dense) (None, 128) 16512 ['dense[0][0]'] dense_2 (Dense) (None, 64) 8256 ['dense_1[0][0]'] y1 (Dense) (None, 1) 129 ['dense_1[0][0]'] y2 (Dense) (None, 1) 65 ['dense_2[0][0]'] ================================================================================================== Total params: 26,114 Trainable params: 26,114 Non-trainable params: 0 __________________________________________________________________________________________________  "},{"title":"Configurar parametros​","type":1,"pageTitle":"Modelo con mutiples salidas","url":"/article/modelo-c
…
